learn/models/penguin_classifier.pt (torch, 2711 bytes, 6 tensors)

fc1.weight f4 [10, 4]
-0.00374341 0.2682218 -0.41152257 -0.3679695 -0.17916065 -0.089605875 0.118431106 0.5180273
-0.044372022 0.13230628 -0.15110654 -0.098282695 -0.47767425 -0.33114105 -0.20611155 0.018521786
0.22086564 0.57115096 -0.4008633 -0.1869742 0.31580445 0.247769 -0.20200182 0.398905
-0.08059168 0.05290705 0.4527381 -0.46383518 -0.3545517 -0.15797205 -0.23337851 0.39141223
-0.32408983 -0.23016644 -0.34932023 -0.4682805 -0.4734976 0.80028427 0.3018039 0.15444127
00000000: 0054 75bb 5e54 893e 16b3 d2be 8066 bcbe
00000010: e475 37be 4983 b7bd 028c f23d 709d 043f
00000020: 70bf 35bd 4c7b 073e acbb 1abe 7048 c9bd
00000030: b891 f4be 528b a9be e80e 53be 00bb 973c
00000040: 9a2a 623e f336 123f f43d cdbe 2a76 3fbe
00000050: 1fb1 a13e 28b7 7d3e 91d9 4ebe 473d cc3e
00000060: 400d a5bd 10b5 583d 4acd e73e ce7b edbe
00000070: cd87 b5be 6dc3 21be c7fa 6ebe 2f67 c83e
00000080: 1aef a5be c0b0 6bbe 1ada b2be 76c2 efbe
00000090: 476e f2be 6edf 4c3f 0a86 9a3e da25 1e3e

fc1.bias f4 [10]
0.026295781 -0.20744476 0.08459234 -0.46684736 -0.355858 -0.45410085 0.31546897 0.25728968
-0.22174752 0.24439499
00000000: 406a d73c 666c 54be c03e ad3d 9e06 efbe
00000010: 0533 b6be e87f e8be 2685 a13e 79bb 833e
00000020: c811 63be ae42 7a3e

fc2.weight f4 [10, 10]
0.20224687 0.3143725 0.12550515 0.04272011 0.21202639 -0.18619564 0.05892715 -0.24517313
-0.21917307 -0.16335806 0.14308453 0.08098815 -0.18731831 0.09553465 0.74755704 -0.011708303
0.012074053 0.036718767 0.19618031 0.71772873 -0.24369258 -0.095929965 0.12428063 0.2620103
0.4403401 0.3276189 0.06293392 -0.24256472 0.029090583 -0.64388627 -0.29470977 0.43695053
0.2404469 -0.31544605 -0.65187365 -0.03367815 -0.05203882 -0.09720274 0.12160733 -0.44795007
0.115926355 0.15991893 0.22637847 0.11824107 -0.31298175 -0.20513597 0.15789726 0.066186905
-0.24668422 -0.1820901 0.29749104 0.3398366 -0.13788326 -0.07958971 -1.0037646 0.04011771
-0.23813814 -0.21048176 -0.017424017 -0.21410412 -0.12950484 0.18764248 -0.19243696 0.2869356
0.21671084 -0.26666948 -0.07870413 0.014269024 0.04613796 0.07500109 0.12409672 0.018942088
-0.15429662 0.1496355 -0.30334112 -0.1874303 -0.07916126 -0.15403877 -0.110627025 -0.25918713
-0.067266434 0.16598706 -0.20601156 -0.016228616 -0.10633218 -0.078159034 0.008788675 0.004509521
0.06399861 0.46543372 0.29954556 0.20082232 0.3002309 -0.022870123 -0.2840742 -0.14991638
0.21532115 -0.0020499527 -0.15717986 -0.24232906
00000000: ce19 4f3e 6ff5 a03e 6c84 003e 48fb 2e3d
00000010: 721d 593e 12aa 3ebe 985d 713d aa0e 7bbe
00000020: e86e 60be 5647 27be c084 123e 1ddd a53d
00000030: 5fd0 3fbe aca7 c33d e65f 3f3f 2fd4 3fbc
00000040: 40d2 453c 6b66 163d 7ee3 483e 12bd 373f
00000050: 8c8a 79be ee76 c4bd d886 fe3d 3726 863e
00000060: 4274 e13e aabd a73e 80e3 803d e362 78be
00000070: 604f ee3c bbd5 24bf 33e4 96be fbb7 df3e
00000080: b637 763e 2582 a1be 31e1 26bf 1af2 09bd
00000090: a826 55bd 3b12 c7bd 440d f93d b659 e5be
000000a0: cc6a ed3d cac1 233e c2cf 673e 6028 f23d
000000b0: 253f a0be 2a0f 52be d2af 213e 008d 873d
000000c0: ca9a 7cbe d475 3abe bf50 983e 10ff ad3e
000000d0: 4531 0dbe eeff a2bd 5c7b 80bf 7852 243d
000000e0: 7cda 73be 8888 57be d0bc 8ebc 1c3e 5bbe
000000f0: eb9c 04be 5a25 403e 320e 45be 39e9 923e
00000100: 72e9 5d3e e788 88be a22f a1bd a0c8 693c
00000110: 28fb 3c3d 2c9a 993d 6c26 fe3d 702c 9b3c
00000120: efff 1dbe 0c3a 193e 874f 9bbe bbed 3fbe
00000130: 4c1f a2bd 57bc 1dbe 6c90 e2bd 2db4 84be
00000140: fcc2 89bd 83f8 293e b2f4 52be e0f1 84bc
00000150: b0c4 d9bd d811 a0bd 60fe 0f3c 9bc4 933b
00000160: b411 833d 544d ee3e 095e 993e 5ea4 4d3e
00000170: ddb7 993e 205a bbbc 2c72 91be ae83 19be
00000180: 267d 5c3e 8058 06bb c2f3 20be 1c25 78be

fc2.bias f4 [10]
-0.2959424 -0.091401726 -0.24091293 0.11557583 0.17096573 -0.32246786 0.19725719 -0.24745122
0.035218805 -0.1282217
00000000: c385 97be d430 bbbd e1b1 76be 05b3 ec3d
00000010: a411 2f3e 821a a5be cafd 493e da63 7dbe
00000020: 9841 103d 8d4c 03be

fc3.weight f4 [3, 10]
-0.060910285 -0.062089026 -0.28376698 -0.27304304 -0.04948315 0.0040895045 -0.14365433 0.11912274
-0.28462344 -0.021341354 0.27809682 -0.41300258 0.273101 0.7309681 -0.2853832 0.65255636
-0.036490947 -0.14116624 -0.004545397 -0.25554216 0.033932805 -0.1929086 0.71934223 -0.3108009
0.15194914 -0.33142668 -0.07604478 -0.06650442 -1.1165305 0.17134616
00000000: 107d 79bd 1051 7ebd e849 91be 4ccc 8bbe
00000010: d8ae 4abd 4001 863b 1f1a 13be a0f6 f33d
00000020: 2aba 91be 10d4 aebc b562 8e3e 1375 d3be
00000030: e5d3 8b3e ba20 3b3f bf1d 92be ef0d 273f
00000040: 8877 15bd e28d 10be 8ef1 94bb 6cd6 82be
00000050: 20fd 0a3d d589 45be d026 383f 4c21 9fbe
00000060: 8e98 1b3e c2b0 a9be 5ebd 9bbd 7833 88bd
00000070: 79ea 8ebf 5e75 2f3e

fc3.bias f4 [3]
0.25107792 0.10447471 -0.24180879
00000000: 498d 803e d6f6 d53d b99c 77be
